…
2017-10-24 14:34:26.634453: W tensorflow/core/platform/cpu_feature_guard.cc:45] The TensorFlow library wasn't compiled to use AVX2 instructions, but these are available on your machine and could speed up CPU computations.
2017-10-24 14:34:26.634471: W tensorflow/core/platform/cpu_feature_guard.cc:45] The TensorFlow library wasn't compiled to use FMA instructions, but these are available on your machine and could speed up CPU computations.
____________________________________________________________________________________________________
Layer (type)                     Output Shape          Param #     Connected to                     
====================================================================================================
input_1 (InputLayer)             (None, 100, 100, 3)   0                                            
____________________________________________________________________________________________________
block1_conv1 (Convolution2D)     (None, 49, 49, 32)    864         input_1[0][0]                    
____________________________________________________________________________________________________
block1_conv1_bn (BatchNormalizat (None, 49, 49, 32)    128         block1_conv1[0][0]               
____________________________________________________________________________________________________
block1_conv1_act (Activation)    (None, 49, 49, 32)    0           block1_conv1_bn[0][0]            
____________________________________________________________________________________________________
block1_conv2 (Convolution2D)     (None, 47, 47, 64)    18432       block1_conv1_act[0][0]           
____________________________________________________________________________________________________
block1_conv2_bn (BatchNormalizat (None, 47, 47, 64)    256         block1_conv2[0][0]               
____________________________________________________________________________________________________
block1_conv2_act (Activation)    (None, 47, 47, 64)    0           block1_conv2_bn[0][0]            
____________________________________________________________________________________________________
block2_sepconv1 (SeparableConvol (None, 47, 47, 128)   8768        block1_conv2_act[0][0]           
____________________________________________________________________________________________________
block2_sepconv1_bn (BatchNormali (None, 47, 47, 128)   512         block2_sepconv1[0][0]            
____________________________________________________________________________________________________
block2_sepconv2_act (Activation) (None, 47, 47, 128)   0           block2_sepconv1_bn[0][0]         
____________________________________________________________________________________________________
block2_sepconv2 (SeparableConvol (None, 47, 47, 128)   17536       block2_sepconv2_act[0][0]        
____________________________________________________________________________________________________
block2_sepconv2_bn (BatchNormali (None, 47, 47, 128)   512         block2_sepconv2[0][0]            
____________________________________________________________________________________________________
convolution2d_1 (Convolution2D)  (None, 24, 24, 128)   8192        block1_conv2_act[0][0]           
____________________________________________________________________________________________________
block2_pool (MaxPooling2D)       (None, 24, 24, 128)   0           block2_sepconv2_bn[0][0]         
____________________________________________________________________________________________________
batchnormalization_1 (BatchNorma (None, 24, 24, 128)   512         convolution2d_1[0][0]            
____________________________________________________________________________________________________
merge_1 (Merge)                  (None, 24, 24, 128)   0           block2_pool[0][0]                
                                                                   batchnormalization_1[0][0]       
____________________________________________________________________________________________________
block3_sepconv1_act (Activation) (None, 24, 24, 128)   0           merge_1[0][0]                    
____________________________________________________________________________________________________
block3_sepconv1 (SeparableConvol (None, 24, 24, 256)   33920       block3_sepconv1_act[0][0]        
____________________________________________________________________________________________________
block3_sepconv1_bn (BatchNormali (None, 24, 24, 256)   1024        block3_sepconv1[0][0]            
____________________________________________________________________________________________________
block3_sepconv2_act (Activation) (None, 24, 24, 256)   0           block3_sepconv1_bn[0][0]         
____________________________________________________________________________________________________
block3_sepconv2 (SeparableConvol (None, 24, 24, 256)   67840       block3_sepconv2_act[0][0]        
____________________________________________________________________________________________________
block3_sepconv2_bn (BatchNormali (None, 24, 24, 256)   1024        block3_sepconv2[0][0]            
____________________________________________________________________________________________________
convolution2d_2 (Convolution2D)  (None, 12, 12, 256)   32768       merge_1[0][0]                    
____________________________________________________________________________________________________
block3_pool (MaxPooling2D)       (None, 12, 12, 256)   0           block3_sepconv2_bn[0][0]         
____________________________________________________________________________________________________
batchnormalization_2 (BatchNorma (None, 12, 12, 256)   1024        convolution2d_2[0][0]            
____________________________________________________________________________________________________
merge_2 (Merge)                  (None, 12, 12, 256)   0           block3_pool[0][0]                
                                                                   batchnormalization_2[0][0]       
____________________________________________________________________________________________________
block4_sepconv1_act (Activation) (None, 12, 12, 256)   0           merge_2[0][0]                    
____________________________________________________________________________________________________
block4_sepconv1 (SeparableConvol (None, 12, 12, 728)   188672      block4_sepconv1_act[0][0]        
____________________________________________________________________________________________________
block4_sepconv1_bn (BatchNormali (None, 12, 12, 728)   2912        block4_sepconv1[0][0]            
____________________________________________________________________________________________________
block4_sepconv2_act (Activation) (None, 12, 12, 728)   0           block4_sepconv1_bn[0][0]         
____________________________________________________________________________________________________
block4_sepconv2 (SeparableConvol (None, 12, 12, 728)   536536      block4_sepconv2_act[0][0]        
____________________________________________________________________________________________________
block4_sepconv2_bn (BatchNormali (None, 12, 12, 728)   2912        block4_sepconv2[0][0]            
____________________________________________________________________________________________________
convolution2d_3 (Convolution2D)  (None, 6, 6, 728)     186368      merge_2[0][0]                    
____________________________________________________________________________________________________
block4_pool (MaxPooling2D)       (None, 6, 6, 728)     0           block4_sepconv2_bn[0][0]         
____________________________________________________________________________________________________
batchnormalization_3 (BatchNorma (None, 6, 6, 728)     2912        convolution2d_3[0][0]            
____________________________________________________________________________________________________
merge_3 (Merge)                  (None, 6, 6, 728)     0           block4_pool[0][0]                
                                                                   batchnormalization_3[0][0]       
____________________________________________________________________________________________________
block5_sepconv1_act (Activation) (None, 6, 6, 728)     0           merge_3[0][0]                    
____________________________________________________________________________________________________
block5_sepconv1 (SeparableConvol (None, 6, 6, 728)     536536      block5_sepconv1_act[0][0]        
____________________________________________________________________________________________________
block5_sepconv1_bn (BatchNormali (None, 6, 6, 728)     2912        block5_sepconv1[0][0]            
____________________________________________________________________________________________________
block5_sepconv2_act (Activation) (None, 6, 6, 728)     0           block5_sepconv1_bn[0][0]         
____________________________________________________________________________________________________
block5_sepconv2 (SeparableConvol (None, 6, 6, 728)     536536      block5_sepconv2_act[0][0]        
____________________________________________________________________________________________________
block5_sepconv2_bn (BatchNormali (None, 6, 6, 728)     2912        block5_sepconv2[0][0]            
____________________________________________________________________________________________________
block5_sepconv3_act (Activation) (None, 6, 6, 728)     0           block5_sepconv2_bn[0][0]         
____________________________________________________________________________________________________
block5_sepconv3 (SeparableConvol (None, 6, 6, 728)     536536      block5_sepconv3_act[0][0]        
____________________________________________________________________________________________________
block5_sepconv3_bn (BatchNormali (None, 6, 6, 728)     2912        block5_sepconv3[0][0]            
____________________________________________________________________________________________________
merge_4 (Merge)                  (None, 6, 6, 728)     0           block5_sepconv3_bn[0][0]         
                                                                   merge_3[0][0]                    
____________________________________________________________________________________________________
block6_sepconv1_act (Activation) (None, 6, 6, 728)     0           merge_4[0][0]                    
____________________________________________________________________________________________________
block6_sepconv1 (SeparableConvol (None, 6, 6, 728)     536536      block6_sepconv1_act[0][0]        
____________________________________________________________________________________________________
block6_sepconv1_bn (BatchNormali (None, 6, 6, 728)     2912        block6_sepconv1[0][0]            
____________________________________________________________________________________________________
block6_sepconv2_act (Activation) (None, 6, 6, 728)     0           block6_sepconv1_bn[0][0]         
____________________________________________________________________________________________________
block6_sepconv2 (SeparableConvol (None, 6, 6, 728)     536536      block6_sepconv2_act[0][0]        
____________________________________________________________________________________________________
block6_sepconv2_bn (BatchNormali (None, 6, 6, 728)     2912        block6_sepconv2[0][0]            
____________________________________________________________________________________________________
block6_sepconv3_act (Activation) (None, 6, 6, 728)     0           block6_sepconv2_bn[0][0]         
____________________________________________________________________________________________________
block6_sepconv3 (SeparableConvol (None, 6, 6, 728)     536536      block6_sepconv3_act[0][0]        
____________________________________________________________________________________________________
block6_sepconv3_bn (BatchNormali (None, 6, 6, 728)     2912        block6_sepconv3[0][0]            
____________________________________________________________________________________________________
merge_5 (Merge)                  (None, 6, 6, 728)     0           block6_sepconv3_bn[0][0]         
                                                                   merge_4[0][0]                    
____________________________________________________________________________________________________
block7_sepconv1_act (Activation) (None, 6, 6, 728)     0           merge_5[0][0]                    
____________________________________________________________________________________________________
block7_sepconv1 (SeparableConvol (None, 6, 6, 728)     536536      block7_sepconv1_act[0][0]        
____________________________________________________________________________________________________
block7_sepconv1_bn (BatchNormali (None, 6, 6, 728)     2912        block7_sepconv1[0][0]            
____________________________________________________________________________________________________
block7_sepconv2_act (Activation) (None, 6, 6, 728)     0           block7_sepconv1_bn[0][0]         
____________________________________________________________________________________________________
block7_sepconv2 (SeparableConvol (None, 6, 6, 728)     536536      block7_sepconv2_act[0][0]        
____________________________________________________________________________________________________
block7_sepconv2_bn (BatchNormali (None, 6, 6, 728)     2912        block7_sepconv2[0][0]            
____________________________________________________________________________________________________
block7_sepconv3_act (Activation) (None, 6, 6, 728)     0           block7_sepconv2_bn[0][0]         
____________________________________________________________________________________________________
block7_sepconv3 (SeparableConvol (None, 6, 6, 728)     536536      block7_sepconv3_act[0][0]        
____________________________________________________________________________________________________
block7_sepconv3_bn (BatchNormali (None, 6, 6, 728)     2912        block7_sepconv3[0][0]            
____________________________________________________________________________________________________
merge_6 (Merge)                  (None, 6, 6, 728)     0           block7_sepconv3_bn[0][0]         
                                                                   merge_5[0][0]                    
____________________________________________________________________________________________________
block8_sepconv1_act (Activation) (None, 6, 6, 728)     0           merge_6[0][0]                    
____________________________________________________________________________________________________
block8_sepconv1 (SeparableConvol (None, 6, 6, 728)     536536      block8_sepconv1_act[0][0]        
____________________________________________________________________________________________________
block8_sepconv1_bn (BatchNormali (None, 6, 6, 728)     2912        block8_sepconv1[0][0]            
____________________________________________________________________________________________________
block8_sepconv2_act (Activation) (None, 6, 6, 728)     0           block8_sepconv1_bn[0][0]         
____________________________________________________________________________________________________
block8_sepconv2 (SeparableConvol (None, 6, 6, 728)     536536      block8_sepconv2_act[0][0]        
____________________________________________________________________________________________________
block8_sepconv2_bn (BatchNormali (None, 6, 6, 728)     2912        block8_sepconv2[0][0]            
____________________________________________________________________________________________________
block8_sepconv3_act (Activation) (None, 6, 6, 728)     0           block8_sepconv2_bn[0][0]         
____________________________________________________________________________________________________
block8_sepconv3 (SeparableConvol (None, 6, 6, 728)     536536      block8_sepconv3_act[0][0]        
____________________________________________________________________________________________________
block8_sepconv3_bn (BatchNormali (None, 6, 6, 728)     2912        block8_sepconv3[0][0]            
____________________________________________________________________________________________________
merge_7 (Merge)                  (None, 6, 6, 728)     0           block8_sepconv3_bn[0][0]         
                                                                   merge_6[0][0]                    
____________________________________________________________________________________________________
block9_sepconv1_act (Activation) (None, 6, 6, 728)     0           merge_7[0][0]                    
____________________________________________________________________________________________________
block9_sepconv1 (SeparableConvol (None, 6, 6, 728)     536536      block9_sepconv1_act[0][0]        
____________________________________________________________________________________________________
block9_sepconv1_bn (BatchNormali (None, 6, 6, 728)     2912        block9_sepconv1[0][0]            
____________________________________________________________________________________________________
block9_sepconv2_act (Activation) (None, 6, 6, 728)     0           block9_sepconv1_bn[0][0]         
____________________________________________________________________________________________________
block9_sepconv2 (SeparableConvol (None, 6, 6, 728)     536536      block9_sepconv2_act[0][0]        
____________________________________________________________________________________________________
block9_sepconv2_bn (BatchNormali (None, 6, 6, 728)     2912        block9_sepconv2[0][0]            
____________________________________________________________________________________________________
block9_sepconv3_act (Activation) (None, 6, 6, 728)     0           block9_sepconv2_bn[0][0]         
____________________________________________________________________________________________________
block9_sepconv3 (SeparableConvol (None, 6, 6, 728)     536536      block9_sepconv3_act[0][0]        
____________________________________________________________________________________________________
block9_sepconv3_bn (BatchNormali (None, 6, 6, 728)     2912        block9_sepconv3[0][0]            
____________________________________________________________________________________________________
merge_8 (Merge)                  (None, 6, 6, 728)     0           block9_sepconv3_bn[0][0]         
                                                                   merge_7[0][0]                    
____________________________________________________________________________________________________
block10_sepconv1_act (Activation (None, 6, 6, 728)     0           merge_8[0][0]                    
____________________________________________________________________________________________________
block10_sepconv1 (SeparableConvo (None, 6, 6, 728)     536536      block10_sepconv1_act[0][0]       
____________________________________________________________________________________________________
block10_sepconv1_bn (BatchNormal (None, 6, 6, 728)     2912        block10_sepconv1[0][0]           
____________________________________________________________________________________________________
block10_sepconv2_act (Activation (None, 6, 6, 728)     0           block10_sepconv1_bn[0][0]        
____________________________________________________________________________________________________
block10_sepconv2 (SeparableConvo (None, 6, 6, 728)     536536      block10_sepconv2_act[0][0]       
____________________________________________________________________________________________________
block10_sepconv2_bn (BatchNormal (None, 6, 6, 728)     2912        block10_sepconv2[0][0]           
____________________________________________________________________________________________________
block10_sepconv3_act (Activation (None, 6, 6, 728)     0           block10_sepconv2_bn[0][0]        
____________________________________________________________________________________________________
block10_sepconv3 (SeparableConvo (None, 6, 6, 728)     536536      block10_sepconv3_act[0][0]       
____________________________________________________________________________________________________
block10_sepconv3_bn (BatchNormal (None, 6, 6, 728)     2912        block10_sepconv3[0][0]           
____________________________________________________________________________________________________
merge_9 (Merge)                  (None, 6, 6, 728)     0           block10_sepconv3_bn[0][0]        
                                                                   merge_8[0][0]                    
____________________________________________________________________________________________________
block11_sepconv1_act (Activation (None, 6, 6, 728)     0           merge_9[0][0]                    
____________________________________________________________________________________________________
block11_sepconv1 (SeparableConvo (None, 6, 6, 728)     536536      block11_sepconv1_act[0][0]       
____________________________________________________________________________________________________
block11_sepconv1_bn (BatchNormal (None, 6, 6, 728)     2912        block11_sepconv1[0][0]           
____________________________________________________________________________________________________
block11_sepconv2_act (Activation (None, 6, 6, 728)     0           block11_sepconv1_bn[0][0]        
____________________________________________________________________________________________________
block11_sepconv2 (SeparableConvo (None, 6, 6, 728)     536536      block11_sepconv2_act[0][0]       
____________________________________________________________________________________________________
block11_sepconv2_bn (BatchNormal (None, 6, 6, 728)     2912        block11_sepconv2[0][0]           
____________________________________________________________________________________________________
block11_sepconv3_act (Activation (None, 6, 6, 728)     0           block11_sepconv2_bn[0][0]        
____________________________________________________________________________________________________
block11_sepconv3 (SeparableConvo (None, 6, 6, 728)     536536      block11_sepconv3_act[0][0]       
____________________________________________________________________________________________________
block11_sepconv3_bn (BatchNormal (None, 6, 6, 728)     2912        block11_sepconv3[0][0]           
____________________________________________________________________________________________________
merge_10 (Merge)                 (None, 6, 6, 728)     0           block11_sepconv3_bn[0][0]        
                                                                   merge_9[0][0]                    
____________________________________________________________________________________________________
block12_sepconv1_act (Activation (None, 6, 6, 728)     0           merge_10[0][0]                   
____________________________________________________________________________________________________
block12_sepconv1 (SeparableConvo (None, 6, 6, 728)     536536      block12_sepconv1_act[0][0]       
____________________________________________________________________________________________________
block12_sepconv1_bn (BatchNormal (None, 6, 6, 728)     2912        block12_sepconv1[0][0]           
____________________________________________________________________________________________________
block12_sepconv2_act (Activation (None, 6, 6, 728)     0           block12_sepconv1_bn[0][0]        
____________________________________________________________________________________________________
block12_sepconv2 (SeparableConvo (None, 6, 6, 728)     536536      block12_sepconv2_act[0][0]       
____________________________________________________________________________________________________
block12_sepconv2_bn (BatchNormal (None, 6, 6, 728)     2912        block12_sepconv2[0][0]           
____________________________________________________________________________________________________
block12_sepconv3_act (Activation (None, 6, 6, 728)     0           block12_sepconv2_bn[0][0]        
____________________________________________________________________________________________________
block12_sepconv3 (SeparableConvo (None, 6, 6, 728)     536536      block12_sepconv3_act[0][0]       
____________________________________________________________________________________________________
block12_sepconv3_bn (BatchNormal (None, 6, 6, 728)     2912        block12_sepconv3[0][0]           
____________________________________________________________________________________________________
merge_11 (Merge)                 (None, 6, 6, 728)     0           block12_sepconv3_bn[0][0]        
                                                                   merge_10[0][0]                   
____________________________________________________________________________________________________
block13_sepconv1_act (Activation (None, 6, 6, 728)     0           merge_11[0][0]                   
____________________________________________________________________________________________________
block13_sepconv1 (SeparableConvo (None, 6, 6, 728)     536536      block13_sepconv1_act[0][0]       
____________________________________________________________________________________________________
block13_sepconv1_bn (BatchNormal (None, 6, 6, 728)     2912        block13_sepconv1[0][0]           
____________________________________________________________________________________________________
block13_sepconv2_act (Activation (None, 6, 6, 728)     0           block13_sepconv1_bn[0][0]        
____________________________________________________________________________________________________
block13_sepconv2 (SeparableConvo (None, 6, 6, 1024)    752024      block13_sepconv2_act[0][0]       
____________________________________________________________________________________________________
block13_sepconv2_bn (BatchNormal (None, 6, 6, 1024)    4096        block13_sepconv2[0][0]           
____________________________________________________________________________________________________
convolution2d_4 (Convolution2D)  (None, 3, 3, 1024)    745472      merge_11[0][0]                   
____________________________________________________________________________________________________
block13_pool (MaxPooling2D)      (None, 3, 3, 1024)    0           block13_sepconv2_bn[0][0]        
____________________________________________________________________________________________________
batchnormalization_4 (BatchNorma (None, 3, 3, 1024)    4096        convolution2d_4[0][0]            
____________________________________________________________________________________________________
merge_12 (Merge)                 (None, 3, 3, 1024)    0           block13_pool[0][0]               
                                                                   batchnormalization_4[0][0]       
____________________________________________________________________________________________________
block14_sepconv1 (SeparableConvo (None, 3, 3, 1536)    1582080     merge_12[0][0]                   
____________________________________________________________________________________________________
block14_sepconv1_bn (BatchNormal (None, 3, 3, 1536)    6144        block14_sepconv1[0][0]           
____________________________________________________________________________________________________
block14_sepconv1_act (Activation (None, 3, 3, 1536)    0           block14_sepconv1_bn[0][0]        
____________________________________________________________________________________________________
block14_sepconv2 (SeparableConvo (None, 3, 3, 2048)    3159552     block14_sepconv1_act[0][0]       
____________________________________________________________________________________________________
block14_sepconv2_bn (BatchNormal (None, 3, 3, 2048)    8192        block14_sepconv2[0][0]           
____________________________________________________________________________________________________
block14_sepconv2_act (Activation (None, 3, 3, 2048)    0           block14_sepconv2_bn[0][0]        
____________________________________________________________________________________________________
globalaveragepooling2d_1 (Global (None, 2048)          0           block14_sepconv2_act[0][0]       
____________________________________________________________________________________________________
dense_1 (Dense)                  (None, 10)            20490       globalaveragepooling2d_1[0][0]   
====================================================================================================
Total params: 20,881,970
Trainable params: 20,827,442
Non-trainable params: 54,528
____________________________________________________________________________________________________
None
Found 103287 images belonging to 10 classes.
Found 25879 images belonging to 10 classes.
…
